notebooks/model.pth (torch, 103199 bytes, 4 tensors)

linear1.weight f4 [32, 784]
0	0x3cda2bea	0.026632268
1	0x3d08ba43	0.033380758
2	0x3b1d5a30	0.0024010055
3	0x3ccce48e	0.025011327
4	0xbc314760	-0.01082024
5	0x3becfea8	0.007232506
6	0xbc430cdc	-0.011904921
7	0x3d022a6d	0.03177874
8	0x3c1aca48	0.009447642
9	0x3d08f843	0.033439886
10	0xbc890dc3	-0.016730195
11	0xbc0e658e	-0.008691205
12	0x3b0a74dc	0.0021126783
13	0x3c6d868b	0.01449741
14	0xbbb70f58	-0.005586546
15	0xbaa12566	-0.0012294471
16	0xbc4dff46	-0.012573069
17	0xbcf5fae1	-0.030026855
18	0xbc94e29e	-0.018174466
19	0x3cae07de	0.021243986
20	0x3b9d6148	0.0048028566
21	0xbc220cb2	-0.009890722
22	0xbc412e32	-0.011790799
23	0xbbe255e4	-0.0069072116
24	0x3c82b798	0.015956685
25	0x3b735c30	0.0037133805
26	0xbcd36fec	-0.025810204
27	0x3d0e773d	0.034781683
28	0x3bc31648	0.005953584
29	0xbd030d84	-0.03199531
30	0xbcf284cc	-0.029604338
31	0xbc7fbf20	-0.015609533
32	0x3c4eb2a0	0.01261583
33	0x3b15402e	0.002277385
34	0xbc731af5	-0.01483797
35	0xbccc9b19	-0.0249763
36	0x3bff22b4	0.0077861194
37	0xbce8cba8	-0.028417423
38	0xbc886991	-0.0166519
39	0x3c9336f5	0.017970541
40	0xbd25238f	-0.040317114
41	0xbc4bc609	-0.012437352
42	0xbc5d3e07	-0.013503558
43	0xbd244379	-0.04010341
44	0x3cad0751	0.021121653
45	0x3cd44b5e	0.025914844
46	0xbc838aad	-0.016057337
47	0x3c8cac82	0.017172102
48	0xbc189582	-0.009312989
49	0xbafbe69a	-0.0019218505
50	0xbc6a5007	-0.014301307
51	0x3b85ca64	0.0040829647
52	0xbb8bcd18	-0.0042663924
53	0xbb738390	-0.0037157275
54	0x3c05d374	0.00816809
55	0x3ab20420	0.0013581552
56	0xbce284dc	-0.027651243
57	0x3c04c4d0	0.008103564
58	0x3c99b12a	0.018761236
59	0x3c4949d6	0.01228567
60	0xbc842b84	-0.016134031
61	0xbcff72d8	-0.031182691
62	0x3cd5d52c	0.026102625
63	0xbbcf3c0c	-0.006324297
64	0x3cd028dd	0.02541011
65	0x3c0001c1	0.007812918
66	0x3d29fbb2	0.0414998
67	0x3c173da2	0.009231003
68	0x3b4b04b2	0.003097814
69	0x3b58575a	0.003301105
70	0x3c63de84	0.013908032
71	0xbc6256d6	-0.013814649
72	0x3bed6f5d	0.0072459416
73	0xbd093e70	-0.03350681
74	0xbd539ece	-0.05166512
75	0xbca772e2	-0.020440523
76	0xbc211d23	-0.009833607
77	0xbc4249bc	-0.0118584
78	0xbd355c7b	-0.04427765
79	0x3bcaaf75	0.006185467
80	0xbd0c273c	-0.034217104
81	0xbc22473f	-0.009904682
82	0xbc206086	-0.009788638
83	0x3c88a8cc	0.016682051
84	0x3d0a19c7	0.03371599
85	0xbd0d3597	-0.034474935
86	0xbc5a9b00	-0.013342619
87	0xbca3db55	-0.020002047
88	0xbd03efc4	-0.03221108
89	0xbb9b229f	-0.0047343518
90	0xbcce342a	-0.025171358
91	0xbcf128ab	-0.029438337
92	0xbc4a0033	-0.012329149
93	0x3d3b50df	0.04573142
94	0x3d6676ef	0.056265768
95	0x3dfc4737	0.12318271
96	0x3d849073	0.06472864
97	0x3db39d3e	0.08770226
98	0x3d83f09d	0.06442378
99	0x3d617233	0.05504055
100	0x3dbf7c04	0.09349826
101	0x3c9b3a6f	0.018948762
102	0xbc680bea	-0.014162997
103	0xbd2a4c45	-0.041576643
104	0xbd153716	-0.036429487
105	0xbd08c767	-0.03339329
106	0xbd21c95a	-0.039498664
107	0xbd71a3d3	-0.058994126
108	0xbd37a104	-0.04483129
109	0x3b9332c5	0.004492136
110	0xbb2ad77a	-0.0026068375
111	0x3d001507	0.031270053
112	0x3d0140c1	0.031555895
113	0x3c183277	0.0092893755
114	0xbcf943af	-0.030427782
115	0x3ccb2a9e	0.024800595
116	0xbd1858ae	-0.037193947
117	0xbccf8fea	-0.025337178
118	0x3c1edd6f	0.009696349
119	0x3cc59af3	0.024121737
120	0x3d57853f	0.052617308
121	0x3dce4c4e	0.10073148
122	0x3e08ced0	0.13360143
123	0x3e190851	0.14944579
124	0x3e111339	0.14167489
125	0x3ddb903e	0.107208714
126	0x3d286600	0.0411129
127	0x3cfc0c87	0.030767692
128	0x3cf8d12c	0.030373178
129	0x3d1317a4	0.035911217
130	0x3d1e0167	0.038575556
131	0x3c9ce267	0.019150926
132	0xb9d9484e	-0.00041443337
133	0xbdb7dc87	-0.08977609
134	0xbd728cf3	-0.05921645
135	0xbd8e682b	-0.06953462
136	0xbd0e497f	-0.03473806
137	0x3ca4a71f	0.02009922
138	0x3ca8fe73	0.020629143
139	0xbd1406e7	-0.036139395
140	0xbc25d032	-0.010120438
141	0x3b36e400	0.0027906895
142	0xbc3e7e8d	-0.011626852
143	0x3bc58437	0.006027724
144	0xbce5d3be	-0.028055068
145	0x3ce700cf	0.028198628
146	0x3d2b0870	0.041756094
147	0x3d312f3d	0.04325794
148	0x3d8e8675	0.069592394
149	0x3d296be7	0.04136267
150	0x3e184597	0.14870296
151	0x3de21f10	0.11041081
152	0x3d1d1844	0.03835322
153	0x3dda5e1f	0.106624834
154	0x3dbd2bb8	0.09236854
155	0x3d67371b	0.056449037
156	0x3da8a782	0.082350746
157	0x3d6dfeca	0.058104314
158	0x3dc60c86	0.096703574
159	0x3d6c5e1e	0.057706945
160	0x3cd2e12e	0.02574214
161	0xbc9757c1	-0.018474462
162	0x3c8a9b87	0.016919864
163	0xbc374abd	-0.011187253
164	0xbd21e51f	-0.039525148
165	0xbcca3d29	-0.024687367
166	0xbc24b240	-0.010052264
167	0x3c89c310	0.016816646
168	0xbc4313b8	-0.011906557
169	0x3c21c15c	0.009872761
170	0xbc2852c9	-0.010273644
171	0x3cb781af	0.022400705
172	0xbb2de6bb	-0.002653523
173	0x3d19b53d	0.037526358
174	0x3d5acf10	0.053420126
175	0x3d28dc85	0.04122593
176	0x3cef4d81	0.029211761
177	0x3d836bc0	0.06417036
178	0x3d8cd0fd	0.06875799
179	0x3da34e18	0.079738796
180	0x3dd76909	0.10518081
181	0x3e04bea1	0.12963344
182	0x3df9c47d	0.1219568
183	0x3da6c6ae	0.08143364
184	0x3d469b6c	0.048488066
185	0x3d81017f	0.062991135
186	0x3de052af	0.10953271
187	0x3d1b900a	0.037979163
188	0x3c2415f7	0.010015002
189	0x3d227738	0.039664477
190	0x3d0a32d9	0.0337399
191	0xbc9336b9	-0.01797043
192	0xbd427e99	-0.047484014
193	0x3b64090b	0.003479543
194	0xbd081653	-0.033224415
195	0x3ce8a9e3	0.02840132
196	0xbd0f26c1	-0.034949068
197	0xbc289545	-0.010289495
198	0x3ba223c0	0.0049481094
199	0x3d0d0de6	0.034437083
200	0xbaa1862c	-0.0012323312
201	0x3d78ece0	0.060772777
202	0x3d96bf10	0.07360661
203	0x3b4f7dd4	0.0031660693
204	0x3ceeb778	0.02914022
205	0xbb910f62	-0.0044268826
206	0x3c6d12f0	0.014469847
207	0x3d8d6d91	0.06905664
208	0x3da4433f	0.08020639
209	0x3d96dbaa	0.07366116
210	0x3e178bfa	0.1479949
211	0x3da24b90	0.07924569
212	0x3d995343	0.07486584
213	0xb986d82c	-0.00025719532
214	0x3d58e88d	0.052956153
215	0x3dae6446	0.085152194
216	0x3d0448b5	0.0322959
217	0x3d893dfd	0.067012765
218	0x3dc0173b	0.09379431
219	0xbd5e809c	-0.05432187
220	0xbc70c90b	-0.01469637
221	0x3cb526fa	0.022113312
222	0x3b2fe69c	0.0026840335
223	0xbc254932	-0.010088252
224	0x3d0d1147	0.034440305
225	0xbcac3618	-0.021021888
226	0x3cfdd8af	0.030987112
227	0xbba3cd50	-0.0049988404
228	0x3d3eb61f	0.046560403
229	0x3d51abc6	0.051189207
230	0x3cd0ed06	0.025503647
231	0xbcebcc99	-0.028784083
232	0xbd0ad09b	-0.033890348
233	0xbd53f48e	-0.051746897
234	0xbd5cc645	-0.053900022
235	0xbdb226b1	-0.08698786
236	0xbd885b44	-0.066580325
237	0xbd16f46d	-0.036854196
238	0x3daeaff8	0.08529657
239	0x3def7d2d	0.11693797
240	0x3ddc8e71	0.10769356
241	0x3d99a0ca	0.07501371
242	0x3bdca14e	0.006733096
243	0x3d6eea77	0.05832907
244	0x3dbad8d0	0.09123385
245	0x3d34f5ae	0.04417961
246	0x3cb6b746	0.022304188
247	0xbcc5e6ab	-0.024157843
248	0xbc25c23c	-0.01011711
249	0xbc60255f	-0.013680785
250	0x3d022686	0.03177502
251	0xbce72a22	-0.028218333
252	0x3c0b44cc	0.008500289
253	0x3c1f10a9	0.009708562
254	0xbce9a7b1	-0.028522344
255	0xbce84986	-0.028355371

linear1.bias f4 [32]
0	0x3c1eeb9a	0.0096997265
1	0xbdd34b09	-0.10317046
2	0xbe5f99e3	-0.21836047
3	0x3e4a1655	0.19735081
4	0x3db9c61c	0.090709895
5	0x3be07bb1	0.0068506827
6	0x3dfdd0e2	0.12393357
7	0xbc73ac3f	-0.01487261
8	0xbc8279eb	-0.015927276
9	0x3e9d4b6b	0.30721602
10	0x3e0caa9b	0.13736956
11	0x3ca318dc	0.019909315
12	0x3ebac4da	0.3647831
13	0x3e680b42	0.22660545
14	0xbd90aa9e	-0.07063793
15	0x3dcf9825	0.10136441
16	0x3d3f4542	0.04669691
17	0x3d9a1de4	0.075252324
18	0x3e5a2212	0.2130206
19	0x3d569ad3	0.052393746
20	0x3e8e431a	0.2778557
21	0xbe8d577f	-0.27605817
22	0x3d25de3e	0.04049515
23	0x3e6323b0	0.22181582
24	0x3e05e844	0.13076884
25	0x3c9548d5	0.018223206
26	0x3cf43c42	0.02981389
27	0x3dc5dda7	0.096614175
28	0x3e550f21	0.20806552
29	0xbcc488ea	-0.023991067
30	0x3dbe0eb6	0.0928015
31	0xbe23ee85	-0.16008957

linear2.weight f4 [10, 32]
0	0x3e9bce38	0.3043077
1	0xbae3d592	-0.0017382374
2	0x3ec6cc92	0.3882795
3	0xbe5f8536	-0.2182816
4	0xbe83e7ee	-0.25762886
5	0x3e0c1459	0.13679637
6	0xbf00c599	-0.5030151
7	0xbdefb3ba	-0.11704202
8	0xbec4715e	-0.38367742
9	0x3c25cd8f	0.01011981
10	0x3f500c86	0.8126911
11	0xbe61b451	-0.22041442
12	0xbedbfb69	-0.42965248
13	0x3de7569a	0.11295815
14	0xbe917c5b	-0.28415188
15	0xbf7466a6	-0.9546913
16	0xbcd7c7cd	-0.02634039
17	0x3f80ecfe	1.0072324
18	0xbf04cccc	-0.51874995
19	0x3ed0ff38	0.40819716
20	0x3e610b14	0.21976882
21	0xbc95ef7b	-0.01830267
22	0xbf4bec6b	-0.7965762
23	0x3ca8b789	0.020595329
24	0x3e20f9a4	0.1572023
25	0xbf167bc3	-0.58782595
26	0x3dc5fc1e	0.09667228
27	0x3ea6c9ca	0.32575828
28	0xbeb28659	-0.34868124
29	0xbd504bfb	-0.05085371
30	0x3f0dbc4e	0.55365455
31	0xbd8df92d	-0.06932292
32	0x3c7953bc	0.015217718
33	0xbe21734a	-0.15766636
34	0xbed8a1f5	-0.42311063
35	0xbe17a6be	-0.14809701
36	0x3eed94d4	0.4640261
37	0xbcd57b69	-0.026059823
38	0x3ef4dbde	0.47823995
39	0xbde602aa	-0.11230977
40	0x3f2c8f1f	0.67405885
41	0x3f59e169	0.85109574
42	0xbea5b45c	-0.32364166
43	0x3f37ecf7	0.71845955
44	0xbf59985d	-0.8499811
45	0x3e3cfbcf	0.18455432
46	0x3e6f4f8d	0.2337019
47	0x3eb0dbae	0.34542602
48	0xbf4d8e70	-0.8029547
49	0xbf0dc82c	-0.55383563
50	0x3f5ca974	0.86196065
51	0xbead5465	-0.3385345
52	0x3ecf1b87	0.4045069
53	0x3e8f0138	0.27930617
54	0xbeb9831e	-0.36232847
55	0x3eb206e4	0.34770882
56	0xbe405e43	-0.18785958
57	0xbed33600	-0.41252136
58	0xbe0e83e1	-0.13917495
59	0xbec58dc1	-0.38584712
60	0xbcccfc2f	-0.025022594
61	0xbe630227	-0.2216879
62	0xbf54776e	-0.82994735
63	0x3d76f11b	0.06028853
64	0x3f7cb035	0.9870637
65	0x3ec60707	0.38677236
66	0xbf2e1eaa	-0.6801554
67	0x3e567a1c	0.20945019
68	0x3ef8a38e	0.48562282
69	0xbeffcc05	-0.49960342
70	0x3ee26407	0.4421694
71	0x3e88e453	0.26736698
72	0x3ed94d2f	0.424417
73	0xbeeb2acc	-0.4593109
74	0x3ea57b47	0.32320616
75	0x3f0c1b6c	0.5472934
76	0x3f6e0229	0.92972046
77	0x3e5ae684	0.21376997
78	0x3ec4fdd3	0.38474903
79	0xbf462d19	-0.77412564
80	0x3e241652	0.1602414
81	0x3f0d3e76	0.5517343
82	0x3dd09d19	0.10186214
83	0xbf549032	-0.83032525
84	0xbe81eb3d	-0.25374785
85	0x3dae7e8d	0.085202314
86	0xbee5eca0	-0.44907093
87	0xbfb3333f	-1.4000014
88	0xbea2e405	-0.3181459
89	0xbf2370be	-0.63843906
90	0xbd90c4e7	-0.07068806
91	0xbf0d4271	-0.55179507
92	0x3dbdb604	0.09263232
93	0xbe7b8406	-0.24562082
94	0x3e089ae6	0.13340339
95	0x3f468074	0.77539754
96	0x3e6b9ad3	0.2300828
97	0x3f16312f	0.586688
98	0xbe923795	-0.2855803
99	0xbf4717cf	-0.77770704
100	0xbf0cd9f2	-0.5502006
101	0x3cbc11eb	0.022957763
102	0xbe892b59	-0.26790884
103	0x3ca0b5a6	0.019617867
104	0x3f23b02b	0.63940686
105	0xbf0334ed	-0.51252633
106	0xbf21d06c	-0.6320865
107	0xbf84173e	-1.0319593
108	0xbed495d8	-0.41520572
109	0x3e9515d6	0.29118222
110	0xbe1ecd48	-0.15507996
111	0x3f143eac	0.5790813
112	0x3f17af1c	0.5925157
113	0x3e9bc797	0.30425712
114	0x3d84f44a	0.06491907
115	0xbf095c7d	-0.5365675
116	0x3ec57349	0.38564518
117	0x3f255249	0.6457868
118	0xbee922c4	-0.45534337
119	0xbe6ecd03	-0.23320393
120	0x3dade4d1	0.08490909
121	0x3f45ba98	0.77237844
122	0x3d8b2e7a	0.06795974
123	0xbd8ed5d5	-0.06974379
124	0x3f27f984	0.65615106
125	0x3e68e10d	0.227421
126	0xbdeec5cc	-0.116588205
127	0x3f56a031	0.8383818
128	0x3ea551c5	0.32288948
129	0xbedb5ab0	-0.42842627
130	0x3e96b9d6	0.29438657
131	0x3f5b2776	0.8560709
132	0xbe9179fe	-0.28413385
133	0x3ec6084c	0.38678205
134	0xbe4c1293	-0.1992896
135	0xbf2e4c47	-0.6808514
136	0x3f275f32	0.6537963
137	0xbf0a2dcb	-0.53976125
138	0xbf5fe247	-0.87454647
139	0x3dc4a7b7	0.096023016
140	0x3f36c294	0.7139065
141	0xbf7efd5d	-0.9960535
142	0x3dee5877	0.11637967
143	0x3ed606e7	0.4180214
144	0x3ef5737f	0.4793968
145	0xbe63fe6a	-0.2226502
146	0xbe133071	-0.14373948
147	0x3ecefd94	0.4042784
148	0xbf4b3e15	-0.79391605
149	0xbed7a37e	-0.42116922
150	0x3f47e144	0.78078103
151	0x3d0ae443	0.033909094
152	0x3ec08e5e	0.37608618
153	0x3da4200f	0.08013927
154	0xbe3bd5f1	-0.18343331
155	0x3d10cc15	0.035350878
156	0xbf4b2686	-0.7935566
157	0xbe167093	-0.14691381
158	0xbdc77387	-0.09738832
159	0xbf52039a	-0.82036746
160	0x3ce74062	0.028228942
161	0xbeff6e0d	-0.4988865
162	0xbe258379	-0.16163434
163	0xbefe036a	-0.4961198
164	0x3ed7eb19	0.42171553
165	0xbe2659ab	-0.16245143
166	0xbe6e1283	-0.23249249
167	0xbf16d825	-0.5892356
168	0xbf484be1	-0.7824078
169	0x3f512340	0.8169441
170	0x3d961551	0.073282845
171	0xbef9fb3c	-0.4882449
172	0x3dce14cd	0.10062561
173	0x3effd5ad	0.4996771
174	0xbf129c6c	-0.5726993
175	0x3f38dbd3	0.72210425
176	0xbeb01214	-0.34388793
177	0xbf0ce001	-0.550293
178	0xbf64b3c4	-0.893368
179	0xbdd780f5	-0.105226435
180	0x3fa22074	1.2666154
181	0xbea7120c	-0.32630956
182	0x3f532131	0.8247252
183	0x3f42f0df	0.7614879
184	0x3f1295ef	0.5726003
185	0x3dd17339	0.10227055
186	0xbe134cd8	-0.14384782
187	0x3eb7dcf8	0.35910773
188	0x3f50a078	0.81494856
189	0x3d023cec	0.03179638
190	0x3f0cd63f	0.55014414
191	0xbe53153b	-0.20613568
192	0xbf63d21d	-0.8899248
193	0xbf0fe74b	-0.562123
194	0x3eef4dec	0.46739137
195	0x3e049646	0.1294795
196	0xbd7c8d2e	-0.061658077
197	0x3e326f9e	0.17425391
198	0x3f3ac351	0.7295428
199	0xbee33738	-0.44378066
200	0xbf07dd79	-0.53072315
201	0x3e788514	0.24269515
202	0x3f211114	0.62916684
203	0x3ee4b1da	0.4466694
204	0x3ed231d8	0.41053653
205	0xbe9be928	-0.30451322
206	0xbeecbd56	-0.46238202
207	0xbf598beb	-0.8497912
208	0xbf3c5036	-0.7355989
209	0x3eae9ccd	0.34104005
210	0x3e2346ef	0.15945028
211	0x3f0ae985	0.5426257
212	0x3cf7c5bd	0.030245656
213	0xbe17f927	-0.14841138
214	0xbebc4771	-0.36773255
215	0x3dd9dfca	0.106383875
216	0x3e3cbf1d	0.18432279
217	0xbeced08f	-0.40393493
218	0xbe28e9dc	-0.1649546
219	0x3ea15d6f	0.31516597
220	0x3f4131cd	0.75466615
221	0xbd29ee06	-0.041486762
222	0xbf098940	-0.5372505
223	0xbf282445	-0.6568034
224	0xbda140fc	-0.07873723
225	0x3d31e8cc	0.043434903
226	0xbee2d030	-0.4429946
227	0x3f481a1a	0.7816483
228	0x3f0e6cae	0.5563458
229	0xbd653fbd	-0.05596899
230	0xbf0f5126	-0.559832
231	0x3f0f58ef	0.55995077
232	0xbd524efc	-0.051344857
233	0x3eaa53f7	0.33267185
234	0x3c9b8be2	0.0189876
235	0x3deacf22	0.11465289
236	0xbf1ca8c3	-0.6119501
237	0x3f6b332f	0.91874975
238	0x3f55dd5c	0.8354089
239	0xbed61d75	-0.4181935
240	0x3ee2a85c	0.44269073
241	0xbf135388	-0.57549334
242	0x3f38c5fe	0.7217711
243	0x3ee78233	0.45216522
244	0xbe19899c	-0.149939
245	0xbf643152	-0.89137757
246	0xbe399a4c	-0.18125266
247	0xbe5f9e05	-0.21837623
248	0xbe17811c	-0.14795345
249	0x3e12dfb0	0.14343143
250	0x3dbe77b6	0.09300177
251	0x3ef8a145	0.4856054
252	0xbf58fbc7	-0.8475918
253	0x3e58a0f1	0.21155144
254	0xbebcf13d	-0.369028
255	0x3f82a1bf	1.0205611

linear2.bias f4 [10]
0	0xbe7671af	-0.24066804
1	0x3e91b053	0.28454837
2	0x3e2f5365	0.17121656
3	0xbd9fcad5	-0.07802359
4	0x3ddf7560	0.109110594
5	0x3e9c6904	0.3054887
6	0xbe0c545c	-0.13704056
7	0xbba05c81	-0.00489384
8	0xbe11e7be	-0.14248559
9	0xbd7a1107	-0.061051395
