notebooks/torchToOnnx.onnx (onnx, 444482 bytes, 4 tensors)

hidden.bias f4 [128]
000000 3e d7 80 bb be f2 17 3c 6d 29 a0 bc 91 5e 29 3c
       -0.003931909 0.009274183 -0.019551003 0.010337488
000010 4c 14 8c bc 2f 6b 10 3d b8 b9 b6 3c 80 d1 ab bc
       -0.017099522 0.03525847 0.022305354 -0.02097392
000020 54 35 2c bc ba d2 81 3c 20 bc c4 ba 89 0c dc 3b
       -0.010510761 0.015847553 -0.0015009679 0.0067153615
000030 78 fd 61 bc dc ce a9 bc 14 f1 b0 3b 6c 32 70 bc
       -0.013793342 -0.020728521 0.0053998325 -0.014660459
000040 c4 ed ab bb 28 ee f6 3c 3e a5 d6 3c 4b ec 1f 3c
       -0.0052468497 0.030142859 0.02620184 0.0097609265
000050 57 a4 99 bc ee 7d 5d bc a0 a7 e9 3c 59 8a bb 3c
       -0.018755121 -0.0135187935 0.028522313 0.022893118
000060 f0 db 17 3d 58 bc 44 bc d9 2c b8 3c 23 f9 7b 3c
       0.037074983 -0.012007795 0.022482323 0.015379223
000070 f8 f7 06 bd db 7b 03 bc 12 4e 95 bc c9 4b 98 3c
       -0.032951325 -0.008025135 -0.018225703 0.018590825
000080 ba 75 28 bd 55 ba d1 bc 2b 0d af 3c b3 9c ec 3c
       -0.041127898 -0.025601545 0.021368584 0.028883314
000090 9b 22 9a b9 fb 4d 55 bc f5 52 dd bc f5 8a 8b 3c
       -0.00029398952 -0.01301908 -0.027017096 0.017034033
0000a0 5e c6 3e bc f4 cc 95 3c 68 90 e7 bc 79 67 d7 3a
       -0.011643974 0.018286206 -0.0282671 0.0016434035
0000b0 86 ee 0e bc 0b 3e 93 3b 77 cf 0e bc cb 98 c0 bc
       -0.008723861 0.00449348 -0.008716456 -0.023510357
0000c0 9a 42 db bc de 05 62 3c ac cb c6 bc 52 48 f8 bc
       -0.026765157 0.013795344 -0.02426704 -0.030307923
0000d0 51 f1 50 bc 4e f1 ea 3c 14 15 17 bd 26 24 30 bc
       -0.012752847 0.028679516 -0.036885336 -0.010750806
0000e0 01 6d 5a bc e2 c2 0e 3d ce 3b 0e 3c 0a 83 56 3b
       -0.013331653 0.034853823 0.008681251 0.0032731914
0000f0 dd 63 dc bc b5 f3 04 bd fd fa 5f bc f2 e7 d3 3c
       -0.026903087 -0.03245898 -0.01367068 0.025867436
000100 2d 35 19 3d 6b 6e eb 3c 31 18 cf bc de cd 17 3d
       0.037404228 0.028739175 -0.02528009 0.037061565
000110 c8 63 81 3b b1 73 9c 3c b7 ae 6e bb 87 16 88 bc
       0.0039486624 0.019098135 -0.0036420056 -0.016612304
000120 a9 d5 a6 bc a0 25 7e bc a9 a7 78 bc ef 6c 24 ba
       -0.020365553 -0.0155119 -0.015176692 -0.0006272336
000130 a1 76 74 bc 6f fd a4 3c c3 40 84 3c 62 56 c8 3c
       -0.014920861 0.020140378 0.016144162 0.024455253
000140 e8 99 0b bd f6 71 f5 3c 31 20 9d bc 03 00 54 bb
       -0.034082323 0.029961567 -0.01918039 -0.003234864
000150 f0 63 72 bb f5 f3 10 3d 42 2a e3 bc 6a 1e d1 3c
       -0.0036985837 0.035388906 -0.027730111 0.025527198
000160 67 5a a4 bc f1 01 3a 3c 3f 6d ee 3c 51 65 d0 3c
       -0.020062638 0.011353002 0.029104827 0.025438936
000170 39 fc e4 3c 04 11 b1 bb 5e 7e 00 bd 3c 0d ab 3c
       0.0279523 -0.0054036397 -0.031370513 0.020880334
000180 02 86 eb 3c f7 00 86 3b 9b b9 75 bc fd 94 55 3c
       0.028750423 0.0040894705 -0.014997865 0.01303601
000190 63 55 99 ba 4b 05 e4 3b 90 63 11 3d e8 ed 52 3c
       -0.0011698421 0.006958639 0.03549534 0.012874104
0001a0 27 5c 37 bb 2c b4 a1 3c 56 9e a0 b9 1c 33 6f 3c
       -0.002797851 0.019739233 -0.00030635548 0.014599588
0001b0 74 fc db bc 93 26 ea 3c 91 25 73 bc a0 a7 e3 bc
       -0.026853777 0.028582847 -0.0148404995 -0.02778989
0001c0 d1 dd a2 3c 7a 86 05 bd 4e 74 c8 3c 8a 23 e9 3c
       0.01988116 -0.03259895 0.02446952 0.02845933
0001d0 cf 2b d2 bb e9 e8 38 3c c8 95 58 ba 47 4b cf 3c
       -0.006413914 0.011285999 -0.0008262065 0.02530445
0001e0 e8 b8 a4 38 5d b3 02 bd 85 0e a7 3b 3d f1 83 bc
       7.854571e-05 -0.031909335 0.0050981664 -0.016106242
0001f0 df 9e 8b 3c ed f9 4b bb 4a 96 0b bc 77 36 10 bd
       0.01704353 -0.003112431 -0.008519718 -0.03520819

output.bias f4 [10]
000000 59 85 5d 3d 76 c8 bc bc 25 3b 34 bd 8f dc 91 3d
       0.05408225 -0.023044806 -0.044001717 0.07122146
000010 8d e3 94 bd e9 95 80 3d db e6 90 3d 4e c9 a0 bd
       -0.07269964 0.06278593 0.07075282 -0.07850896
000020 7b 4a f8 3d 8c 5c 54 bd
       0.12123581 -0.051846072

onnx::MatMul_12 f4 [784, 128]
000000 ee 27 f0 3c 62 4e 8c 3c 8e 4a 21 bb 54 6b b5 3a
       0.029315915 0.01712722 -0.0024611088 0.001384119
000010 ee 70 2a bb da 76 e5 3c 5c d8 ab 3c a2 9b 2f bc
       -0.0026007253 0.028010774 0.020977192 -0.010718258
000020 13 23 25 bc 99 96 05 3d 0d a9 63 b9 ba 30 f9 bb
       -0.010079163 0.032614324 -0.00021711383 -0.0076046856
000030 39 34 19 3d 54 1a a0 bc d3 a2 5c 3c 61 27 b0 3c
       0.03740332 -0.019543804 0.013466555 0.021503152
000040 18 82 a9 bc a2 e0 df 3c 69 45 ab 3c e1 f9 09 bd
       -0.020691916 0.027328793 0.02090712 -0.03368557
000050 ca d6 ed 3c 08 c9 a8 bc a7 7f d6 3c 10 cd c4 bc
       0.029033083 -0.020603672 0.026183916 -0.024023563
000060 a7 82 b4 bc 9f 42 b1 3c 66 37 a1 bc cb 9e 09 3c
       -0.022034956 0.021638213 -0.019679736 0.008399676
000070 37 51 94 bc ca 3d 4d 3b 8a cb 94 3c 08 e3 f5 ba
       -0.018105133 0.0031317347 0.018163461 -0.0018759677
000080 39 9e d2 bc a5 11 04 3d 88 c8 8a 3c 4f a2 96 3b
       -0.025710212 0.03224339 0.016941324 0.0045969854
000090 28 be ba bc 08 e4 a6 bc 80 cb 6a bc 89 23 08 3b
       -0.022795752 -0.020372406 -0.014330745 0.0020773134
0000a0 74 d5 da 3c 26 b3 6c bc f9 29 0a bd 1e cc df 3c
       0.02671311 -0.014447009 -0.033731434 0.02731901
0000b0 17 ff a5 3c c9 d5 45 3a 6a 89 c5 bb ac 1a 89 bc
       0.020263238 0.000754681 -0.006028344 -0.016736351
0000c0 be 96 00 bd dd 16 b0 bc 61 c9 0c 3c 36 e3 5d bc
       -0.03139376 -0.021495277 0.008592934 -0.013542941
0000d0 30 a6 df 3c 37 b2 03 bd 95 cf 07 bd 99 2e 97 3a
       0.027300924 -0.03215238 -0.03315695 0.0011534273
0000e0 8f 84 9a 3c 90 6a 2e bb 5d 3c 8a bb e4 57 d9 3c
       0.018862037 -0.002661381 -0.0042186216 0.026531167
0000f0 7c 9f 05 3d 0a ad 1a 3c 6e 1e 7a 3c 72 4f bb 3c
       0.0326228 0.00944067 0.015266044 0.02286503
000100 63 2f c2 bc 57 b5 12 3d 2a 82 c9 3c e0 5e 09 bd
       -0.023704236 0.03581747 0.0245982 -0.033537745
000110 34 ed 4e 3c 30 85 d7 bc da 77 fb bb 87 60 ca ba
       0.012629796 -0.026308626 -0.0076741995 -0.0015440144
000120 cb d5 2a bc b1 dd 8b 3b 67 1b 08 3d ac c9 a7 3b
       -0.010426949 0.004268371 0.033229258 0.0051204767
000130 a4 c4 89 3c b3 88 cc bc bc 8e e8 3c 98 8b 0f bd
       0.016817398 -0.024967527 0.028388374 -0.035045236
000140 c2 03 6b 3c 35 50 81 3c 47 ee df bc b2 0d 01 3d
       0.014344158 0.015785316 -0.0273353 0.0315072
000150 d6 89 f7 bc eb 2e dd 3c 17 9d fe 3c 2f d1 83 3c
       -0.030217092 0.026999911 0.031080766 0.016090957
000160 c0 af a8 3c 43 28 2a 3c 8a 1f da bc e4 14 36 3d
       0.020591617 0.010385576 -0.026626367 0.044453517
000170 c7 86 8b bc 54 42 d1 3c 62 39 b8 bc a0 be c9 bb
       -0.01703204 0.025544323 -0.0224883 -0.0061567575
000180 76 36 a2 ba a1 f4 3d bc e8 67 0e ba 3b 7b de bc
       -0.001237585 -0.011593969 -0.00054323534 -0.02715837
000190 31 86 c5 bc d3 a7 0e bb 7d 96 ab 3c af 6e 55 bc
       -0.024111839 -0.0021767511 0.020945782 -0.013026877
0001a0 ea 1f c6 ba fa 31 f9 3c ab 18 d0 bc 9c 82 e5 3c
       -0.0015115712 0.030419338 -0.025402388 0.028016381
0001b0 cc c8 c1 3c 14 0b 5b 3b e3 2a 0f bd 72 d9 92 bc
       0.023655318 0.003342335 -0.03495301 -0.017925952
0001c0 35 c4 07 39 14 27 55 3c 29 d2 06 bd 61 b8 16 bd
       0.00012947696 0.013009805 -0.032915268 -0.03679693
0001d0 01 1c 7a bc f9 79 5d 3c b1 9e 1d bd 56 f0 4e 3c
       -0.015265466 0.01351785 -0.038481418 0.012630543
0001e0 66 2b d9 3c f7 0a 77 bc bb 3c 91 3c b7 60 65 bc
       0.026509952 -0.015078298 0.017729154 -0.014000109
0001f0 14 00 46 bb 4c 8c 03 3d c8 bb fb bc 4a a6 81 3b
       -0.003021245 0.03211622 -0.03072919 0.003956591
000200 c7 8c fa 3c eb 61 a1 bc 15 45 2c bc e4 3e 40 3b
       0.030584706 -0.019700011 -0.010514517 0.002933436
000210 ac 79 16 3c a8 d9 10 bc f0 ae 68 bb 70 d1 09 bd
       0.009184282 -0.008840956 -0.0035504662 -0.033647
000220 8b 15 d4 bc 73 63 9f bc c9 04 b9 3c 8b 8a be 3c
       -0.025889179 -0.0194566 0.02258529 0.023259422
000230 0a 96 8a 3c ed e7 6f 3b 7e a4 a3 3a 06 d3 e2 b9
       0.016917247 0.0036606744 0.0012484936 -0.00043263304
000240 1a 87 e0 ba f0 3b b4 3c 54 fa 92 bc e2 0b 6e bc
       -0.0017130107 0.022001237 -0.017941631 -0.0145292
000250 cd d0 ac bc cf a4 f2 3c c7 21 47 3c dc b3 16 3d
       -0.021095658 0.029619602 0.012154049 0.03679262
000260 2f 20 c6 3c cd 97 bd 3c 34 02 1d 3b 67 f0 7c 3c
       0.024185268 0.023143673 0.0023957612 0.015438176
000270 12 26 2f 3c 9f 76 88 bb 2f 76 ce bc 95 96 f6 3b
       0.010690229 -0.0041645314 -0.025202839 0.007525275
000280 e2 70 57 bc b0 08 09 bd 30 0d d3 bc 23 3b 16 3d
       -0.013149472 -0.03345555 -0.025763124 0.03667749
000290 c6 1a 20 bc 97 0b fa bc 74 c7 41 bb 99 43 74 3c
       -0.009772008 -0.030523105 -0.0029568346 0.014908695
0002a0 71 5e ab 3b 44 8a da bc 28 3c f4 bc c4 1c d1 3b
       0.005229764 -0.026677258 -0.029813841 0.006381603
0002b0 62 73 ca bc 3e 0e 9d bc 4d 33 90 b9 8e b6 cf 3b
       -0.024713222 -0.01917183 -0.00027504042 0.006338901
0002c0 de 06 ca bc 30 2d 1a 3c fe ee 8c 3c 20 21 a6 3c
       -0.024661478 0.009410188 0.017203804 0.020279467
0002d0 b7 26 dd 3b 21 ba 0a bd eb 4a 2d 3b 23 85 7c 3c
       0.006749 -0.033868913 0.002644236 0.015412602
0002e0 cc 0a 36 bc 7b f1 e2 bc 40 f1 d4 3c b5 48 f8 3c
       -0.011110973 -0.027703037 0.025993943 0.030308107
0002f0 52 84 d8 bc 0b 49 ec 3c e8 fc ac bc 68 77 85 b9
       -0.026430283 0.028843423 -0.021116689 -0.000254567
000300 b7 92 39 3c 48 ec cf bb b9 ea 89 bc d2 27 ca bc
       0.011326483 -0.0063453056 -0.016835557 -0.02467719
000310 18 50 16 3b 54 0e e2 bc 5d e7 b6 bc 55 20 92 bb
       0.0022935923 -0.027594723 -0.02232712 -0.0044594207
000320 37 25 70 bc 42 62 d6 3b 0b 36 8d bb 7a 77 de 3c
       -0.01465731 0.006542475 -0.004309421 0.02715658
000330 84 9e f5 3a 9c 79 30 bc d2 d7 84 3b e5 2d c2 bc
       0.0018739258 -0.010771181 0.004054048 -0.023703525
000340 85 19 49 bc 08 8f 00 3d 5a 1e 40 3c 00 9f 5f bc
       -0.012274151 0.031386405 0.011725986 -0.013648748
000350 dd eb a6 bc ca df 09 bc f8 de 99 3b 7c 1b fe 3b
       -0.02037614 -0.008415172 0.0046957694 0.0077547412
000360 ba 1e 0d bd eb 00 21 bd 14 77 83 3b 08 76 de bb
       -0.03445313 -0.039307516 0.004011998 -0.0067889728
000370 70 c4 7a 3a c1 f2 e6 bc f4 3b 0e 3d 6d 44 37 3d
       0.00095660146 -0.028191926 0.034725145 0.04474299
000380 b7 8e c2 3c 81 7d e3 bc 0c 7d 97 bc 0c f9 ed bb
       0.023749692 -0.027769806 -0.018492244 -0.0072623547
000390 8a 1a 31 bb 8d 3b 9a bb 0d 6a dc 3c 19 ee c6 bc
       -0.0027023875 -0.004706806 0.026906038 -0.024283456
0003a0 5c 1d 95 bc 3e e5 d8 3a 68 98 1b 3c 66 91 cd bc
       -0.018202476 0.0016547812 0.009496786 -0.025093745
0003b0 ab 1b 99 bc 2d db ef 3c 5e 1b 58 3c cc 75 a6 3c
       -0.01868995 0.029279316 0.013190119 0.020319842
0003c0 8c ce 15 bd e4 ba 2f 3d 41 ba cc 3c 06 d6 93 3c
       -0.03657393 0.042902842 0.024991157 0.01804639
0003d0 6b 63 17 bd 82 eb 1f 3d fe 79 0e bd 96 91 b1 3b
       -0.036960047 0.039042957 -0.03478431 0.0054189665
0003e0 a3 b9 05 bd da ff 16 bc d6 7d f3 bc f6 40 f4 3c
       -0.03264774 -0.009216273 -0.02972309 0.029816132
0003f0 46 87 63 3c e1 58 0e 3d 7c 1f 4b ba 10 e3 b3 3a
       0.013887232 0.03475273 -0.0007748527 0.0013724286

onnx::MatMul_13 f4 [128, 10]
000000 41 45 41 3e b8 58 8d 3d 06 c0 4b 3e 2d ef 99 bc
       0.18874075 0.069016874 0.1989747 -0.018790806
000010 dd 95 a1 be 8f ce 8f 3d d9 62 c7 3e 25 ee ed bd
       -0.3155965 0.0702182 0.38942602 -0.11617688
000020 98 e0 7f bc 91 f6 69 be 9d fb 8b bd f6 1a 48 3d
       -0.015617512 -0.22847964 -0.06835101 0.048853837
000030 48 57 c7 bd 13 37 4a 3e d4 da 27 3e ae 45 12 3e
       -0.097334445 0.19747572 0.1639207 0.14284393
000040 b0 15 7b be 27 d8 4d bc 3f 88 ba be 69 00 2b 3e
       -0.24519992 -0.012563742 -0.36432073 0.16699375
000050 5a fc b0 be 43 67 05 be 54 48 a4 3e fb 0e 94 3e
       -0.3456753 -0.13027672 0.32086432 0.2891768
000060 ae 15 53 3e 65 59 c7 3d 56 92 1a be c6 af 4d 3e
       0.20613739 0.097338475 -0.15094885 0.20086583
000070 66 0f 23 be 22 aa 3a be 45 b9 05 be 2e 3a 00 3e
       -0.15923843 -0.18228963 -0.13058956 0.12522194
000080 51 37 a9 3e b5 7b da bd 82 56 6a 3d c8 71 95 be
       0.33050016 -0.106681265 0.057211407 -0.2918837
000090 c9 9c b9 3c 5b ba f0 3e 31 1e b5 be ca bc af bd
       0.022657769 0.47017178 -0.35374597 -0.085809305
0000a0 49 47 9f be 4c be 73 3e 88 9e d9 3e f3 aa 39 3e
       -0.31109074 0.23803061 0.42503762 0.18131618
0000b0 c5 aa 89 be 08 ff 80 3d f7 21 9d be 50 13 81 3e
       -0.268881 0.06298643 -0.30689976 0.25210047
0000c0 db da 67 be d9 8c a5 bd 71 4d b6 bd e5 61 a0 be
       -0.2264208 -0.08083505 -0.089014895 -0.31324688
0000d0 0a c7 05 3d 9e ec 8b 3e a4 de 81 3e 91 b2 3b 3e
       0.03266052 0.27328962 0.25365174 0.18329836
0000e0 96 9f 36 be 60 8b 69 3e cd 31 4e be ed 69 98 be
       -0.17834315 0.22807074 -0.20136185 -0.29768315
0000f0 49 f9 bc 3e 51 18 80 bd f8 88 d2 3d 98 c4 99 ba
       0.3690894 -0.06254638 0.10280031 -0.0011731563
000100 c1 ab 7c 3d 15 aa 40 3e 22 db 05 bd f8 dc bf be
       0.061687235 0.18814881 -0.032679684 -0.37473273
000110 4d 92 f8 bd e5 cf 0b be 42 3e 88 be c7 c7 95 3e
       -0.1213728 -0.13653524 -0.2661 0.2925398
000120 03 3d 7d 3e c9 c1 61 3d 9a cd 96 3d 51 b5 62 3c
       0.24730305 0.05511645 0.07363434 0.0138371745
000130 3c a9 54 3e af 3a 23 3e c9 fc 8c bc 03 d1 bc be
       0.20767683 0.15940355 -0.017210381 -0.36878213
000140 f3 1c b3 be 26 df 8e 3e 3d 2d 21 be 14 f8 b1 be
       -0.34983024 0.27904624 -0.15739913 -0.3475958
000150 00 8b a1 3c 7a a9 0e 3e e0 cc ab be 7c 6e ff 3c
       0.0197196 0.13931838 -0.33554745 0.031180613
000160 6e e4 bf 3e 6c 90 98 3e 63 90 83 be 0d 5b 49 bd
       0.37478966 0.29797685 -0.25696096 -0.0491591
000170 26 be af be ef c8 0c 3e 64 2e 83 3c c5 ff 9b be
       -0.3432476 0.13748525 0.016013332 -0.30468574
000180 f4 57 49 be 2d e8 28 3e bc e2 d3 3e bd 85 5e 3e
       -0.19662458 0.16494818 0.41383922 0.21730705
000190 36 68 82 3e 71 9a 44 3e fb 96 08 bd 22 a6 73 be
       0.25470132 0.1919954 -0.03334711 -0.23793843
0001a0 ab e4 2b bd 53 65 6d 3e 9f da d8 3c 71 90 3f be
       -0.04196612 0.23183183 0.026471434 -0.18707444
0001b0 57 7b 84 3e ee 62 a8 be 6c ff a2 3e 27 39 1c be
       0.2587535 -0.32887977 0.31835496 -0.15256177
0001c0 45 20 93 3e 22 3a 33 3d 5f ac c0 be ba 1a 7b bd
       0.28735557 0.04375661 -0.3763151 -0.061304785
0001d0 cb 2f 6b be 78 c2 2f 3e 80 6c 50 3e 8d f6 60 3c
       -0.2296745 0.17164028 0.2035389 0.013730657
0001e0 62 8b 89 be 22 06 3a 3e bd ec 60 be a3 a6 f8 3d
       -0.26864153 0.18166402 -0.21965308 0.121411584
0001f0 26 ad 1c 3e 91 d7 ff 3d f4 22 5b be b2 af d1 bd
       0.15300426 0.12492288 -0.21400052 -0.10238589
000200 6a 68 c7 3d a2 e9 d1 3d 21 39 72 3d 5e d9 77 3e
       0.09736712 0.1024964 0.059136514 0.24204013
000210 24 cc cb 3e 2b db b0 3e 52 af b6 bc eb b5 b9 be
       0.39804184 0.34542212 -0.022300396 -0.36271605
000220 db ab 97 be 7c 4a 83 3e 1e 28 88 be 9d c5 38 be
       -0.29623303 0.25642765 -0.26593107 -0.18044133
000230 66 9c 87 3d 7c ba 8d bd e8 09 a9 bd 54 b5 f2 3e
       0.066216275 -0.06920335 -0.082538426 0.47403967
000240 5d 7a ef bc 78 96 4e 3e 2a db 8e be 30 40 aa 3d
       -0.029233152 0.20174587 -0.27901584 0.08313024
000250 9b 67 87 be 5e 2e 1f be 74 39 0b be b4 42 c9 3e
       -0.26446232 -0.15545031 -0.13596135 0.39308703
000260 5a 6d af 3c a4 e2 32 be 03 7a c4 be 98 0c 90 be
       0.021414448 -0.17469269 -0.38374338 -0.28134608
000270 38 34 57 be 77 54 9f 3e c0 b9 55 be 2a 6e b2 3e
       -0.21016014 0.3111913 -0.20871639 0.34849674
000280 de 75 d6 be 69 fd 6d 3e 0d 3f ea bd 1c a3 95 3e
       -0.418868 0.232412 -0.11437807 0.29226005
000290 e8 07 70 3b f9 31 8c be 3b 6b 1c be aa 8f 44 be
       0.0036625806 -0.27381876 -0.1527528 -0.19195428
0002a0 db 0c aa 3e ee fe 9d 3e 4d 4e 99 3c aa f7 53 3d
       0.33212933 0.30858558 0.018714095 0.051749863
0002b0 b0 f0 87 3d 50 95 7d 3c c5 90 c8 be dd 6b a2 bd
       0.06637704 0.015477493 -0.3917295 -0.079307295
0002c0 78 c9 3e be 9f 4f e4 3e 4a be eb bd e6 60 1b 3e
       -0.18631542 0.44591996 -0.11510904 0.15173683
0002d0 30 57 be be 92 bb e2 be d4 69 2a be 27 df 41 3e
       -0.37175894 -0.4428373 -0.16641933 0.18932782
0002e0 52 3f e0 3e ae d0 0c be 98 4e ca be 80 3b ca 3e
       0.4379831 -0.1375148 -0.39513087 0.3949852
0002f0 ed 56 3e be b6 9e a0 3e fe ed 46 3e f0 6c 84 be
       -0.18587847 0.31371087 0.19426724 -0.25864363
000300 65 33 ce 3e b9 06 59 3e a8 e3 f5 be 1b ab 95 3e
       0.40273586 0.2119397 -0.4802525 0.29232106
000310 e8 82 aa be 71 a3 95 be 54 03 b2 3e fd 9f 6e bd
       -0.33303 -0.29226258 0.34768164 -0.058258045
000320 6a 28 66 be 52 01 db 3e ac fc 3c bd 33 79 39 be
       -0.22476354 0.42774445 -0.046139404 -0.1811264
000330 dd e2 86 be 49 9b 0d 3e bc 5a 49 3e f3 dc cb 3e
       -0.26344958 0.13828768 0.19663519 0.39817008
000340 99 ba 9b be a9 f7 94 be fc f0 91 be da 1a ec 3c
       -0.304158 -0.290952 -0.2850417 0.028821398
000350 25 f6 91 3e 0f 76 77 bc d9 5a 0b 3d a8 f1 d3 3d
       0.28508106 -0.015103831 0.034022186 0.10348827
000360 21 eb 90 3e 76 eb 2e bf 62 2f 8b 3e 59 3d 6d 3c
       0.2830439 -0.68328035 0.27184588 0.014479958
000370 9c f9 48 be 18 4b fe bd f3 05 26 3e 28 39 5a be
       -0.19626468 -0.12416667 0.16213207 -0.21310866
000380 7a df a3 3e ea 49 b3 3d cc 6d ae bd 08 39 82 3e
       0.32006437 0.08754332 -0.08517036 0.25434136
000390 99 da 64 be da 33 af bd 7d 45 60 3d b6 19 68 bd
       -0.22349013 -0.08554812 0.05475377 -0.056665145
0003a0 b1 c5 8a bd d6 96 a8 be b9 46 46 bd a7 7f ac 3e
       -0.06775988 -0.3292758 -0.04840729 0.3369114
0003b0 fb 7f 49 be 6f 92 b3 3e c5 85 a1 3d a1 31 7c bd
       -0.19677727 0.35072657 0.07886843 -0.061570767
0003c0 6b 6b 84 3e 31 fd fb be 14 e0 31 3e a7 e9 d5 bc
       0.25863203 -0.49216607 0.17370635 -0.02611239
0003d0 83 00 1a 3e ed 50 38 3e fe fb 98 be 91 c2 f6 3c
       0.15039258 0.1799962 -0.29879755 0.030122073
0003e0 2b 8b 73 3e 48 80 10 3e 80 bf 6c be f8 06 09 3f
       0.23783557 0.14111435 -0.23119926 0.5352626
0003f0 66 1e a2 3e 24 f6 fa bd fb a8 a7 be 21 f4 22 3e
       0.31663817 -0.12253979 -0.3274611 0.1591344
